results/run1_elec.pth (torch, 33413 bytes, 26 tensors)

weight f4 [8, 1, 5]
-0.4080878 -0.6677173 -0.23905356 -4.320018 0.36830395 0.9537761 -1.5136108 2.2836556
-2.7958882 0.1831483 0.08504823 0.63167995 -0.3659428 -0.11045551 -0.44758663 0.43556365
0.28126502 -0.11059389 -0.073012136 -0.0076476196 -0.1612238 -0.08266681 -0.37215486 -0.35917443
-0.09536101 1.1622981 0.32502472 0.44216385 0.5889511 0.017931797 -0.16004492 1.02025
-0.09013826 -0.27388045 -0.5881325 -3.2435968 2.3319206 -1.797862 2.1229007 -1.8101236
00000000: e2f0 d0be 85ef 2abf 75ca 74be 963d 8ac0
00000010: 5692 bc3e ac2a 743f 00be c1bf 6a27 1240
00000020: d5ef 32c0 3a8b 3b3e c42d ae3d c7b5 213f
00000030: db5c bbbe 8036 e2bd 132a e5be 3302 df3e
00000040: f801 903e 0d7f e2bd 6387 95bd e298 fabb
00000050: da17 25be 374d a9bd 158b bebe b6e5 b7be
00000060: a24c c3bd 2fc6 943f a469 a63e 4d63 e23e
00000070: 80c5 163f b4e5 923c d1e2 23be 8d97 823f
00000080: 689a b8bd 0f3a 8cbe da8f 16bf 1797 4fc0
00000090: 303e 1540 5820 e6bf 9bdd 0740 21b2 e7bf

weight f4 [1, 8, 5]
-0.12123358 -0.030333834 -2.111527 0.30835718 1.4641562 0.8847621 1.0754935 -11.401979
1.0651268 0.9493841 0.51232374 0.15610504 0.11153013 0.39040622 -0.31139672 0.24515891
0.36043328 0.21912965 0.14692296 0.136532 0.14760174 0.06763092 -0.07121837 0.24854061
-0.050021436 0.5548175 0.65325135 0.3360533 2.1040685 0.40078303 0.40539712 0.19150211
2.259147 0.7380559 0.10920306 0.25938192 0.38785005 0.21356577 0.12558192 -10.357905
00000000: 5049 f8bd a97e f8bc 4223 07c0 fee0 9d3e
00000010: 7869 bb3f c57f 623f c5a9 893f 826e 36c1
00000020: 1356 883f d60a 733f a627 033f 00da 1f3e
00000030: e969 e43d 53e3 c73e 646f 9fbe f00a 7b3e
00000040: b68a b83e 8663 603e f972 163e 0bcf 0b3e
00000050: e924 173e 1482 8a3d f0da 91bd 6e81 7e3e
00000060: 47e3 4cbd 8508 0e3f 7b3b 273f 2e0f ac3e
00000070: 0fa9 0640 6f33 cd3e 3690 cf3e 2119 443e
00000080: dd95 1040 3bf1 3c3f dba5 df3d b5cd 843e
00000090: 4894 c63e fcb0 5a3e 8c98 003e fbb9 25c1

weight f4 [8, 1, 5]
-1.6424475 -0.26259372 0.8399317 0.23021547 -0.39472777 188.3765 -0.3949705 -3.4498017
1.3249321 27.068327 -0.28220242 -0.28111762 0.036330495 -0.44707388 -0.63804495 35.50471
8.501725 5.8803444 3.0280104 2.4153728 -49.601063 53.520905 0.7100296 40.86332
-7.7375445 -0.50421625 -3.7405634 -0.6676205 -7.270511 0.7232434 -0.3302127 -3.3600368
-0.30219075 -2.0696537 0.36735794 8.302685 -0.6756863 2.8007114 9.28233 3.57692
00000000: b83b d2bf af72 86be c405 573f 9bbd 6b3e
00000010: c219 cabe 6260 3c43 9339 cabe 8dc9 5cc0
00000020: 6097 a93f ef8b d841 d67c 90be a6ee 8fbe
00000030: 49cf 143d dee6 e4be ea56 23bf d304 0e42
00000040: 1107 0841 c82b bc40 ecca 4140 7895 1a40
00000050: 7d67 46c2 6815 5642 80c4 353f 0a74 2342
00000060: f799 f7c0 5114 01bf 6465 6fc0 2de9 2abf
00000070: 07a8 e8c0 7b26 393f a411 a9be d80a 57c0
00000080: bfb8 9abe 3575 04c0 5716 bc3e ccd7 0441
00000090: c7f9 2cbf db3e 3340 6c84 1441 42ec 6440

weight f4 [1, 8, 5]
0.27427635 -3.0823836 0.42299324 -0.4768821 -0.07735302 -45.223927 -22.894068 -19.71053
-4.309394 -2.42901 -0.10086861 0.07474486 0.441149 0.030526718 0.26696154 -31.0557
-2.7147899 -7.6745296 -2.8521821 0.16305146 -279.20905 -11.033373 -12.11293 -22.756882
-6.350396 0.89841735 -0.6910734 -4.7797103 -0.16285661 -2.495777 0.00026765402 0.45949495
0.08005659 -6.9895906 0.39496025 -98.9786 -14.743935 -4.0714216 -2.2421284 -2.072103
00000000: f36d 8c3e c645 45c0 9292 d83e e429 f4be
00000010: 436b 9ebd 4de5 34c2 0d27 b7c1 2aaf 9dc1
00000020: 8ee6 89c0 e674 1bc0 3494 cebd d513 993d
00000030: 48de e13e 2b13 fa3c 2faf 883e 1372 f8c1
00000040: 1ebf 2dc0 bf95 f5c0 278a 36c0 f6f6 263e
00000050: c29a 8bc3 b288 30c1 90ce 41c1 180e b6c1
00000060: 7236 cbc0 aefe 653f 30ea 30bf 63f3 98c0
00000070: e2c3 26be cfba 1fc0 ea53 8c39 ec42 eb3e
00000080: b6f4 a33d baaa dfc0 3b38 ca3e 0bf5 c5c2
00000090: 28e7 6bc1 1649 82c0 087f 0fc0 569d 04c0

weight f4 [8, 1, 5]
-0.19705564 0.08550629 -0.30729663 -0.28475684 -0.25931796 -0.4934189 -0.8950668 -0.35820085
-0.2267065 -0.042891666 0.3418778 0.6095757 0.28224868 0.5393083 0.5556213 -0.65106213
-0.863869 -0.007838377 -0.6738022 -1.5972427 0.5997017 2.1945899 -0.42369264 -0.4929265
-0.2553314 -0.11465995 -0.044447552 -0.23103142 -0.1179893 -0.09332917 -1.5785276 -0.55065525
-0.5728535 -1.799569 -2.029085 -0.09015117 -0.01384897 0.21250574 0.38026863 -0.17634532
00000000: f4c8 49be ec1d af3d fc55 9dbe a6cb 91be
00000010: 53c5 84be 67a1 fcbe 1923 65bf 1a66 b7be
00000020: c025 68be 2caf 2fbd 9b0a af3e 270d 1c3f
00000030: e682 903e 1c10 0a3f 333d 0e3f 02ac 26bf
00000040: 8526 5dbf 896c 00bc 4d7e 2cbf 7372 ccbf
00000050: 0d86 193f 2974 0c40 3eee d8be dd60 fcbe
00000060: ccba 82be d6d2 eabd a30e 36bd 8093 6cbe
00000070: 60a4 f1bd 5d23 bfbd 310d cabf bef7 0cbf
00000080: 87a6 12bf 4758 e6bf 87dc 01c0 2da1 b8bd
00000090: cae6 62bc 1b9b 593e 92b2 c23e de93 34be

weight f4 [1, 8, 5]
0.35970846 0.29735318 0.13050313 0.043079868 -0.0010477018 -0.05943127 -0.30852783 -0.14949216
-0.039489504 0.33609116 -0.28306565 -0.32980925 -0.2829235 -0.62811565 -0.3111428 -0.97101575
0.9369836 -0.21080486 -0.06569071 -0.5511666 -0.8061482 -0.39549482 -0.25219205 -0.1235103
-0.50699645 0.074500315 0.1491151 0.002485653 -0.06746482 0.035125706 -0.41501737 5.613378
0.7836007 4.307044 0.436423 0.21989864 -0.24863878 0.36653465 -0.20247519 -0.32257292
00000000: b52b b83e ad3e 983e 9da2 053e 8474 303d
00000010: 0a53 89ba 346e 73bd 5cf7 9dbe 7914 19be
00000020: bfbf 21bd 2414 ac3e fbed 90be c2dc a8be
00000030: 59db 90be 30cc 20bf 1c4e 9fbe 7d94 78bf
00000040: 28de 6f3f 3bdd 57be da88 86bd 4119 0dbf
00000050: ba5f 4ebf 4c7e cabe 511f 81be f8f2 fcbd
00000060: 85ca 01bf 9f93 983d a1b1 183e 56e6 223b
00000070: ff2a 8abd f9df 0f3d 287d d4be cba0 b340
00000080: 0e9a 483f 4ed3 8940 d672 df3e 1c2d 613e
00000090: 2a9b 7ebe 6eaa bb3e a855 4fbe 4728 a5be

weight f4 [8, 1, 5]
-1.9378273 -7.584639 -33.31264 -12.560156 -48.799957 -0.3401027 -0.28114194 -0.26909047
-0.06363405 -0.42292133 -0.98220676 -1.5096656 -0.27457508 -2.2179468 -11.131931 -5.02496
5.619135 10.180989 5.9070134 60.383495 21.78891 8.283522 15.693047 43.463215
-14.916329 3.5839763 -12.132107 -3.4527094 -16.047382 0.20752294 -0.88879585 -0.3515584
0.6855085 -1.4053966 -10.5506315 -0.8650736 -1.4790572 -2.8584497 -3.269836 -0.6265312
00000000: ba0a f8bf 5db5 f2c0 2540 05c2 66f6 48c1
00000010: 2833 43c2 f121 aebe d6f1 8fbe 3ac6 89be
00000020: 9252 82bd 2589 d8be e771 7bbf b93c c1bf
00000030: 1b95 8cbe d7f2 0dc0 641c 32c1 79cc a0c0
00000040: f4cf b340 55e5 2241 4106 bd40 b388 7142
00000050: b04f ae41 4e89 0441 b816 7b41 55da 2d42
00000060: 49a9 6ec1 de5f 6540 1c1d 42c1 31f9 5cc0
00000070: 0a61 80c1 e580 543e 2088 63bf 76ff b3be
00000080: 7c7d 2f3f 09e4 b3bf 63cf 28c1 7775 5dbf
00000090: bf51 bdbf d7f0 36c0 fe44 51c0 5964 20bf

weight f4 [1, 8, 5]
3.2840254 6.5901666 11.596159 15.778863 16.303703 -0.07136315 0.43450955 1.7089354
0.10525464 -0.1827166 0.46289134 3.512862 10.341564 0.20744832 0.1874257 21.389093
-14.709624 -429.6128 12.218289 -22.24721 -139.56195 83.20298 -4.3566155 55.900463
-12.168153 1.7301142 -0.28245813 0.550538 -135.34673 2.8841054 8.338663 -1.3835453
1.2191892 -4.2426214 -8.6797 -2.550861 -0.21205138 2.333209 8.835915 1.5296563
00000000: 792d 5240 a5e2 d240 de89 3941 3976 7c41
00000010: fc6d 8241 d826 92bd 0978 de3e 65be da3f
00000020: bf8f d73d 0f1a 3bbe 1800 ed3e bbd2 6040
00000030: 0c77 2541 556d 543e 86ec 3f3e dd1c ab41
00000040: 9f5a 6bc1 70ce d6c3 1d7e 4341 49fa b1c1
00000050: dc8f 0bc3 ed67 a642 6569 8bc0 139a 5f42
00000060: c1b0 42c1 6274 dd3f 5a9e 90be 0ff0 0c3f
00000070: c358 07c3 2f95 3840 2a6b 0541 0318 b1bf
00000080: 640e 9c3f 8ec3 87c0 0de0 0ac1 4e41 23c0
00000090: ff23 59be 4c53 1540 e85f 0d41 c7cb c33f

weight f4 [8, 1, 5]
0.34493953 0.3206242 0.87075853 0.14419164 0.8084662 -0.036531344 -7.2895384 -0.7664575
-1.3861977 -0.5039566 -0.3225367 -0.1691156 0.3999708 0.07170843 -0.3387541 3.568595
3.498522 4.167016 3.8440895 0.15994802 -0.34901267 -0.26553175 -0.27415308 0.12154436
-0.033712316 -4.3462863 -3.475965 -0.32982576 -0.6399322 -6.613976 -0.104133144 -0.192369
-0.10665629 0.24230297 -0.08814684 -0.38603494 -0.6584808 -0.16350181 -0.4331927 -0.55396104
00000000: ea9b b03e db28 a43e 08ea 5e3f f9a6 133e
00000010: a4f7 4e3f e4a1 15bd e643 e9c0 8f36 44bf
00000020: ed6e b1bf 4d03 01bf 8823 a5be a42c 2dbe
00000030: f9c8 cc3e dfdb 923d 2d71 adbe dc63 6440
00000040: c9e7 5f40 3258 8540 9005 7640 6ac9 233e
00000050: cab1 b2be c7f3 87be cb5d 8cbe 40ec f83d
00000060: ed15 0abd c714 8bc0 3676 5ec0 ecde a8be
00000070: 99d2 23bf b1a5 d3c0 c243 d5bd 61fc 44be
00000080: 9d6e dabd 451e 783e 5586 b4bd 5fa6 c5be
00000090: 3392 28bf 056d 27be 6fcb ddbe 64d0 0dbf

weight f4 [1, 8, 5]
0.24039668 0.5626989 0.37751663 0.57120657 0.5609286 -1.8413669 0.3873721 -0.14947662
0.4086205 1.2010977 0.032004163 0.3166699 0.009689915 0.33018047 0.018111013 1.3416638
0.9675236 0.76437753 1.0059472 0.5335395 0.11505553 0.032190118 0.019529983 0.19289216
0.036825515 -0.69336563 -1.1815602 0.68481463 -0.42953447 0.52351403 0.29573342 0.16552484
-0.044551745 0.13087574 0.21195562 0.017209988 -0.009492999 -3.1011374 0.29246244 0.7621121
00000000: 8c2a 763e 090d 103f dc49 c13e 983a 123f
00000010: 0499 0f3f e9b1 ebbf a355 c63e 6610 19be
00000020: b536 d13e 92bd 993f cc16 033d 8f22 a23e
00000030: 73c2 1e3c 6a0d a93e 8c5d 943c a4bb ab3f
00000040: a0af 773f 3fae 433f e1c2 803f 0b96 083f
00000050: 3ca2 eb3d c9d9 033d 58fd 9f3c 8685 453e
00000060: 5ad6 163d 6980 31bf 5d3d 97bf 0350 2f3f
00000070: f1eb dbbe 0405 063f 5f6a 973e 587f 293e
00000080: e47b 36bd 4a04 063e e50a 593e f6fb 8c3c
00000090: 8688 1bbc 0979 46c0 a3bd 953e c719 433f

weight f4 [8, 1, 5]
5.2949443 9.489922 11.242196 7.699302 -1.729494 -21.336952 14.921281 -19.210411
18.04199 -10.348625 -0.3256827 -0.44634664 0.12852545 -0.2036678 -0.21418849 7.341778
10.227762 8.019374 2.257584 4.2621512 -0.27506202 -0.5781484 0.17222904 -0.51390624
-0.04236881 -0.40998352 0.079488434 -0.4264639 -0.14247537 -0.14089979 6.2167974 31.487669
1.7746625 21.16519 2.3803456 -0.32393724 0.099258415 2.3498123 3.4125915 0.72930336
00000000: 2f70 a940 b8d6 1741 09e0 3341 af60 f640
00000010: 0f60 ddbf 14b2 aac1 91bd 6e41 ecae 99c1
00000020: ff55 9041 f893 25c1 e2bf a6be 8c87 e4be
00000030: 2d9c 033e 4b8e 50be 3a54 5bbe d8ef ea40
00000040: eaa4 2341 5b4f 0041 427c 1040 8b63 8840
00000050: eed4 8cbe 8901 14bf cf5c 303e 5c8f 03bf
00000060: eb8a 2dbd 5ce9 d1be d5ca a23d 7a59 dabe
00000070: 10e5 11be 0948 10be 01f0 c640 bfe6 fb41
00000080: 2428 e33f 4f52 a941 9557 1840 1adb a5be
00000090: ff47 cb3d 5363 1640 e667 5a40 a0b3 3a3f

weight f4 [1, 8, 5]
-16.90058 -5.76044 -14.174406 -7.529802 -15.597221 -132.94603 -49.441822 -4.7766757
-0.774379 -11.563047 -0.064145416 0.2977699 0.08970479 0.08097052 -1.9931498 0.8352563
-8.103255 -3.326664 -5.3804975 -13.825341 0.41926354 -0.059186928 0.04289478 1.1455437
-0.028860558 0.24186547 0.28975338 0.009588409 0.13974231 0.7823817 -4.7954316 -15.994276
-5.0911136 -14.433543 -9.306082 -0.49613288 -1.4725257 -3.7635217 -2.4699593 -0.9519605
00000000: 6334 87c1 8655 b8c0 5eca 62c1 23f4 f0c0
00000010: 388e 79c1 2ff2 04c3 6dc4 45c2 87da 98c0
00000020: b43d 46bf 3e02 39c1 ac5e 83bd 4c75 983e
00000030: 25b7 b73d dfd3 a53d 881f ffbf 5bd3 553f
00000040: efa6 01c1 10e8 54c0 092d acc0 9934 5dc1
00000050: b6a9 d63e fe6d 72bd 70b2 2f3d 2da1 923f
00000060: fa6c ecbc 95ab 773e 8e5a 943e b418 1d3c
00000070: 9c18 0f3e 2b4a 483f 2d74 99c0 8ee8 7fc1
00000080: 67ea a2c0 cbef 66c1 b6e5 14c1 2105 febe
00000090: b97b bcbf 8add 70c0 d013 1ec0 afb3 73bf

weight f4 [8, 1, 5]
0.110896274 -0.22330765 -0.094986334 -0.16143775 -0.11264733 -0.105535515 0.17408589 0.40404
2.5960784 0.27040195 0.12735145 0.37768883 -0.2034152 0.38086176 -0.3675312 0.19463858
0.4855865 -0.30766574 0.1631224 -0.36725697 0.11330148 -0.052152302 0.40322897 0.39460602
0.121243246 -0.06340797 -0.29107028 -0.41649345 0.2804232 0.58325213 -0.11557149 -0.11227044
0.16752082 0.50394875 0.32365504 -0.7129569 -0.58411 0.23790652 -0.8166528 -0.20450804
00000000: 961d e33d c3aa 64be 3288 c2bd f04f 25be
00000010: a5b3 e6bd 0123 d8bd 9243 323e 55de ce3e
00000020: 2626 2640 2072 8a3e 6b68 023e 6e60 c13e
00000030: 134c 50be 5000 c33e 0d2d bcbe 564f 473e
00000040: cb9e f83e 5d86 9dbe 8f09 273e 1b09 bcbe
00000050: 9b0a e83d a79d 55bd 0774 ce3e cd09 ca3e
00000060: 614e f83d 0adc 81bd 2a07 95be a13e d5be
00000070: a193 8f3e 0350 153f bfb0 ecbd 0bee e5bd
00000080: 948a 2b3e c902 013f 1db6 a53e 5884 36bf
00000090: 3c88 15bf c49d 733e 2810 51bf 8e6a 51be

weight f4 [1, 8, 5]
0.56269497 0.703537 -0.093056284 -0.0959757 -0.18336892 -0.2135331 -0.26959237 -0.22413445
-0.2590435 -0.6585265 -0.31160426 -0.37730333 -0.34806308 0.12134601 -0.108836375 -0.6657324
-0.10463834 0.26929158 -0.24034062 -0.056775086 -0.17470811 -0.24097762 -0.1073668 -0.08226909
-0.13480482 -0.12039326 -0.4146988 -0.080151685 -0.40544894 -0.25588667 -0.24155918 -0.102703094
-0.25892985 -0.030103449 -0.30080518 -0.122870035 0.3586625 -0.43262666 -0.32496494 -2.034015
00000000: c70c 103f 001b 343f 4b94 bebd e88e c4bd
00000010: 10c5 3bbe 6ca8 5abe 0308 8abe 8083 65be
00000020: 5aa1 84be 3195 28bf 988a 9fbe e72d c1be
00000030: 5335 b2be 4284 f83d 9be5 debd 706d 2abf
00000040: a04c d6bd 96e0 893e da1b 76be fe8c 68bd
00000050: afe6 32be d6c2 76be 20e3 dbbd b27c a8bd
00000060: 460a 0abe be90 f6bd 6753 d4be 9126 a4bd
00000070: 0197 cfbe 9403 83be 4a5b 77be 0056 d2bd
00000080: 7492 84be 829b f6bc 2303 9abe 49a3 fbbd
00000090: 9ca2 b73e 3e81 ddbe ce61 a6be 4d2d 02c0

weight f4 [8, 1, 5]
4.6502595 -6.559906 -14.474953 30.93905 39.833263 2.0017383 22.895058 4.969415
-4.542102 10.222216 -6.012086 -19.739058 -7.30791 -20.650507 -3.4163084 -0.5947303
-0.655442 -0.40816608 -0.94975334 -0.48570055 -2.127651 -0.53820634 -0.3997659 -1.3730416
-2.055739 -0.28002563 -0.4159952 -0.4029439 -0.63188994 -0.23865607 -4.435102 -0.27931908
-2.913357 -0.2612855 -2.4020545 -2.8258688 -1.0282571 -1.1443756 -1.8232145 -1.5083289
00000000: edce 9440 c0ea d1c0 6899 67c1 2d83 f741
00000010: 4355 1f42 7b1c 0040 1429 b741 7305 9f40
00000020: e658 91c0 328e 2341 0263 c0c0 97e9 9dc1
00000030: 66da e9c0 3d34 a5c1 cca4 5ac0 3f40 18bf
00000040: 0ccb 27bf 25fb d0be 0923 73bf bead f8be
00000050: 6f2b 08c0 e4c7 09bf 1eae ccbe d4bf afbf
00000060: 3a91 03c0 855f 8fbe 53fd d4be aa4e cebe
00000070: 8ac3 21bf 4262 74be 5bec 8dc0 e902 8fbe
00000080: 7174 3ac0 37c7 85be 43bb 19c0 09db 34c0
00000090: ee9d 83bf e67a 92bf 185f e9bf ec10 c1bf

weight f4 [1, 8, 5]
-18.936466 -4.0292106 -3.3480318 -62.049347 -9.704217 -5.9040623 -38.741062 -2.9860601
-1.9235985 -16.513897 13.592872 -7.271791 11.887983 2.1724367 -5.235218 1.1309366
0.4016071 0.6309306 0.062446266 0.12511511 1.7696785 0.12601309 0.59000313 2.7670481
0.34991768 0.51978856 0.1413646 0.36762795 0.16510941 0.18582658 -6.5196457 3.7817433
5.2790647 7.763696 1.3531328 1.1512312 3.1451123 1.342535 2.1731522 1.2132368
00000000: e27d 97c1 4bef 80c0 2746 56c0 8832 78c2
00000010: 7944 1bc1 14ee bcc0 d9f6 1ac2 9c1b 3fc0
00000020: 7a38 f6bf 761c 84c1 677c 5941 83b2 e8c0
00000030: 2e35 3e41 3409 0b40 e886 a7c0 88c2 903f
00000040: 729f cd3e ab84 213f a8c7 7f3d 2d1e 003e
00000050: d384 e23f 9309 013e 720a 173f 5117 3140
00000060: 6928 b33e dd10 053f e2c1 103e bb39 bc3e
00000070: 7112 293e 5349 3e3e f0a0 d0c0 1508 7240
00000080: 19ee a840 3370 f840 7533 ad3f 8b5b 933f
00000090: 8549 4940 30d8 ab3f ed14 0b40 584b 9b3f

weight f4 [8, 1, 5]
-0.23663838 0.18328248 0.07573106 0.1690027 -0.0066140397 0.42856187 -0.2920715 -0.31493583
0.06404631 -0.52100277 -0.27529183 0.41844004 0.2676512 0.016979856 0.36780506 0.05123005
0.37174514 -0.032347225 0.23179615 0.26676086 0.117145635 0.16729097 -0.16293816 0.21605773
0.4222022 0.22617732 -0.27805823 0.11645942 -0.3381718 0.38540703 -0.21575028 -0.44105625
0.27326134 -0.38833752 -0.21556604 -0.17093714 -0.15376674 0.34948513 -0.33925188 0.4252385
00000000: 5551 72be 67ae 3b3e e318 9b3d 0b0f 2d3e
00000010: 96ba d8bb 766c db3e 658a 95be 453f a1be
00000020: b62a 833d 7060 05bf 0df3 8cbe c63d d63e
00000030: 9409 893e 5719 8b3c f250 bc3e 9ad6 513d
00000040: 6155 be3e 867e 04bd f85b 6d3e e194 883e
00000050: 0dea ef3d 534e 2b3e 43d9 26be 3d3e 5d3e
00000060: e32a d83e 079b 673e a65d 8ebe 4782 ee3d
00000070: db24 adbe 1254 c53e a4ed 5cbe 20d2 e1be
00000080: e9e8 8b3e 2dd4 c6be 58bd 5cbe 250a 2fbe
00000090: 0775 1dbe b7ef b23e 6cb2 adbe dcb8 d93e

weight f4 [1, 8, 5]
0.11718415 0.17371318 -0.056184996 0.03465482 -0.011470645 0.097821824 0.22775191 0.21292888
0.086340226 0.32068002 0.011912021 0.1014556 0.1890952 0.24600954 0.09117675 0.030154102
0.110572234 0.2591558 0.16863753 0.18179503 0.112981975 0.18500347 0.14822215 0.13308315
0.094154835 0.18216701 0.0784453 0.1627583 0.17008469 0.15859795 -0.02283536 0.22422051
-0.0014043951 0.14268205 0.2582175 0.117777154 0.05347784 0.20343988 0.07270133 0.087543644
00000000: 3efe ef3d dee1 313e 3d22 66bd 36f2 0d3d
00000010: 5fef 3bbc cf56 c83d cc37 693e 070a 5a3e
00000020: 25d3 b03d 2c30 a43e a32a 433c f4c7 cf3d
00000030: 2ca2 413e ede9 7b3e e0ba ba3d bc05 f73c
00000040: b273 e23d 12b0 843e 51af 2c3e 7a28 3a3e
00000050: 1863 e73d 8d71 3d3e 8cc7 173e f346 083e
00000060: 40d4 c03d fd89 3a3e eea7 a03d 1daa 263e
00000070: ae2a 2e3e 8067 223e 3911 bbbc 109a 653e
00000080: ae13 b8ba 3e1b 123e 1635 843e 2635 f13d
00000090: 940b 5b3d 8b52 503e 6fe4 943d 154a b33d

weight f4 [8, 1, 5]
-7.7036667 -1.659067 4.8547955 126.0488 61.802593 -12.992026 -1.1400532 30.456413
-4.0870624 8.564777 -0.3668736 -0.5556638 4.9997044 -0.35283247 -0.4051637 -7.6377296
-3.9421906 0.84975344 -1.6441245 6.924479 105.79922 33.821423 18.987501 89.25846
47.145462 17.569921 62.252186 0.23406138 86.737915 -47.1589 -1.0677221 -1.9590011
-7.940092 -18.475338 -15.195558 -4.851114 -4.9785366 -12.229841 4.3056407 -1.9771698
00000000: 7084 f6c0 4f5c d4bf 7c5a 9b40 fc18 fc42
00000010: db35 7742 57df 4fc1 43ed 91bf bca6 f341
00000020: 37c9 82c0 5409 0941 dbd6 bbbe fc3f 0ebf
00000030: 94fd 9f40 75a6 b4be 9e71 cfbe 4868 f4c0
00000040: da4c 7cc0 7189 593f ac72 d2bf 5595 dd40
00000050: 3399 d342 2349 0742 67e6 9741 5584 b242
00000060: f494 3c42 338f 8c41 3d02 7942 c9ad 6f3e
00000070: d079 ad42 b7a2 3cc2 1eab 88bf 8cc0 fabf
00000080: 3c15 fec0 7ecd 93c1 0121 73c1 533c 9bc0
00000090: 2c50 9fc0 6ead 43c1 cfc7 8940 e613 fdbf

weight f4 [1, 8, 5]
-39.390232 -66.66893 21.38829 55.4633 -15.197024 -8.639916 -14.093849 18.380161
57.59352 3.8878365 0.12586801 3.0832148 -0.22280799 -0.13433282 6.8724875 0.29242915
2.0308366 8.127027 -0.23745784 0.005014738 -77.631584 -91.64527 1.2318115 0.49933368
37.483368 -221.65305 -958.0961 -7.7832875 -8.02709 -52.21904 1.6303643 0.17127486
13.308014 10.234642 16.383652 0.08483016 0.5608998 0.6486598 19.861547 0.34496683
00000000: 998f 1dc2 7e56 85c2 381b ab41 6bda 5d42
00000010: 0327 73c1 193d 0ac1 6880 61c1 920a 9341
00000020: c45f 6642 50d2 7840 8be3 003e 6453 4540
00000030: c727 64be 8b8e 09be 6beb db40 46b9 953e
00000040: 3af9 0140 4d08 0241 2628 73be ac52 a43b
00000050: 5f43 9bc2 614a b7c2 00ac 9d3f aaa8 ff3e
00000060: f8ee 1542 2ea7 5dc3 2786 6fc4 b110 f9c0
00000070: f66e 00c1 4ce0 50c2 c7af d03f ad62 2f3e
00000080: a0ed 5441 18c1 2341 b811 8341 6fbb ad3d
00000090: 2197 0f3f 920e 263f 73e4 9e41 7e9f b03e

weight f4 [8, 1, 5]
0.0707569 -0.22942673 -0.30187395 -0.43043587 0.095037855 -0.29307973 0.13285796 -0.09349475
0.32295144 -0.28546584 0.23749316 -0.15726048 -0.086926036 -0.15683757 -0.3551799 -0.25047728
-0.32928318 -0.052306812 -0.06764137 0.3227393 0.1381128 -0.17407443 0.090534344 0.3909102
0.57129365 -0.4311307 -0.20738307 -0.39634672 -0.11364592 -0.42439508 0.45876637 0.2820982
0.33759224 -0.03580598 -0.21126853 -0.12142132 -0.40681556 0.119142026 -0.05434732 -0.19804533
00000000: fee8 903d d7ee 6abe 398f 9abe 1762 dcbe
00000010: 35a3 c23d 8c0e 96be eb0b 083e 2d7a bfbd
00000020: e459 a53e 9428 92be 6831 733e e408 21be
00000030: 4706 b2bd 079a 20be 24da b5be 8f3e 80be
00000040: ce97 a8be ab3f 56bd 8f87 8abd 163e a53e
00000050: 716d 0d3e 9140 32be 126a b93d 6225 c83e
00000060: 4d40 123f 2abd dcbe 3a5c 54be f5ed cabe
00000070: 31bf e8bd 504a d9be 6de3 ea3e 2d6f 903e
00000080: e4d8 ac3e 4ba9 12bd c756 58be beab f8bd
00000090: 214a d0be bc00 f43d 4c9b 5ebd 65cc 4abe

weight f4 [1, 8, 5]
-0.09986503 0.028018542 -0.15122068 -0.07206233 -0.12807032 -0.061161645 -0.0909795 -0.102907345
-0.09635437 -0.17076524 -0.15405312 -0.14636433 -0.049739715 -0.13296892 -0.15698543 -0.07326192
-0.1258531 -0.114113584 -0.08932401 -0.07114378 -0.22151706 -0.1983342 -0.26208904 -0.20128565
-0.23609468 -0.07790315 -0.05650379 -0.15382709 -0.16539557 -0.20235285 -0.14984532 -0.26814792
-0.24988857 -0.3597109 -0.21261686 0.011653782 -0.12077863 -0.05000857 -0.086139396 -0.06132648
00000000: 0986 ccbd 2487 e53c 98d9 1abe 6a95 93bd
00000010: de24 03be a284 7abd 7653 babd 16c1 d2bd
00000020: 7155 c5bd 15dd 2ebe 1ac0 1dbe 88e0 15be
00000030: dfbb 4bbd 0129 08be cac0 20be 580a 96bd
00000040: a3df 00be 62b4 e9bd 82ef b6bd d5b3 91bd
00000050: 5ed5 62be 1f18 4bbe 8930 86be d31d 4ebe
00000060: cec2 71be b08b 9fbd 8570 67bd d984 1dbe
00000070: 755d 29be 9635 4fbe 0d71 19be af4a 89be
00000080: cae2 7fbe 072c b8be 3cb8 59be 81ef 3e3c
00000090: c95a f7bd c9d5 4cbd da69 b0bd 7a31 7bbd

weight f4 [8, 1, 5]
-0.09287856 -0.06294415 -0.29404297 -0.0998058 -0.485464 -1.7610344 -0.91072416 -11.62403
-2.1244473 -2.099411 -0.034533586 -0.776006 -1.4244994 -0.6655337 -0.4191263 -35.135616
55.123516 -15.263055 -16.2081 -11.9756365 -4.3548145 -0.060692873 -5.319222 -3.9786198
-10.045012 30.293325 28.094255 27.847542 -22.792236 15.280508 -0.03778188 -0.11119515
-0.45717424 -0.03748751 -0.26779637 -12.282537 0.5441705 -12.751374 1.3165232 -7.999167
00000000: 1d37 bebd dde8 80bd cd8c 96be fc66 ccbd
00000010: bd8e f8be 9369 e1bf 3825 69bf 07fc 39c1
00000020: f2f6 07c0 c05c 06c0 1773 0dbd 54a8 46bf
00000030: ff55 b6bf 6b60 2abf b997 d6be df8a 0cc2
00000040: 7b7e 5c42 7935 74c1 30aa 81c1 359c 3fc1
00000050: a45a 8bc0 1799 78bd 1137 aac0 b5a1 7ec0
00000060: 5fb8 20c1 bb58 f241 09c1 e041 c4c7 de41
00000070: 8056 b6c1 f67c 7441 2cc1 1abd 48ba e3bd
00000080: be12 eabe 818c 19bd 9b1c 89be 4685 44c1
00000090: c24e 0b3f a105 4cc1 d583 a83f 2df9 ffc0

weight f4 [1, 8, 5]
-0.22119462 -0.3434977 -0.22104716 -0.0010301997 0.02008874 0.82671356 1.0476161 -1.1649901
-0.59571844 -14.090501 -0.7771729 0.45927882 -1.3467795 -0.070546396 -1.6581523 -49.306114
-24.680872 -1.4694439 38.771255 1.9670628 0.558432 0.4403302 1.0558051 6.7480884
0.74870765 -28.026623 12.667244 -8.661794 -44.895996 123.37511 0.06437514 0.049395293
-0.11294488 -0.23128416 -0.003405335 8.132027 -6.9667015 -1.827168 7.57246 -11.528814
00000000: d880 62be eede afbe 305a 62be c407 87ba
00000010: 2491 a43c 80a3 533f 4918 863f 651e 95bf
00000020: 0181 18bf b172 61c1 cef4 46bf 9826 eb3e
00000030: 4563 acbf a17a 90bd 563e d4bf 7639 45c2
00000040: 6d72 c5c1 bd16 bcbf c415 1b42 b7c8 fb3f
00000050: 66f5 0e3f f672 e13e 9f24 873f 57f0 d740
00000060: 4eab 3f3f 8636 e0c1 08ad 4a41 b596 0ac1
00000070: 8095 33c2 0ec0 f642 1dd7 833d b852 4a3d
00000080: a54f e7bd c1d5 6cbe 0a2c 5fbb c81c 0241
00000090: 38ef dec0 a4e0 e9bf 9851 f240 0676 38c1

weight f4 [3, 168]
0.21759066 0.048623722 0.6986606 -0.08899347 0.036443513 -0.16689771 -0.09962416 -0.12155019
-0.21412002 -0.24126038 0.057967473 0.009165558 0.053994242 -0.12864082 0.09918423 0.28768817
-0.33234057 -0.23166017 -0.11725499 0.27658373 0.32252103 0.15151466 -0.14847282 -0.1501177
-0.11043574 0.25367108 0.16940194 -0.030362282 -0.21980475 -0.05387354 0.16263661 0.06097308
-0.17741509 0.088774934 -0.32641253 -0.006022527 0.10549469 -0.016014162 -0.09203174 0.32230505
0.4122893 0.23329815 0.36511028 -0.057318073 0.039717887 0.104945354 -0.11553379 0.13235039
0.113957465 0.24632797 -0.12581159 -0.10930566 -0.021011218 0.014495389 0.26916292 -0.15630117
0.029599136 -0.29672122 0.06014371 -0.024229094 0.022282967 0.07206324 0.055319034 -0.127505
0.12882406 0.10556462 0.19375277 -0.084173575 0.0415718 0.0081586335 -0.09289753 -0.06270433
0.14476791 -0.2648329 0.42903695 0.09798772 0.030969061 -0.34333524 0.058410477 0.02948215
-0.39317462 -0.2455352 -0.02282604 0.05979146 0.07289867 0.71732515 -0.22413206 -0.1903523
-0.2048712 0.03956673 -0.010937651 0.022266105 0.07797366 0.12449569 0.10316665 -0.15401912
0.07238713 0.01955559 0.15701666 -0.068377 -0.17761019 -0.26959172 -0.027094921 0.094087474
-0.12563106 -0.0563987 0.016900964 0.15192178 0.10361645 0.061013985 -0.01359917 0.22299993
-0.07920504 -0.032468066 -0.11284288 0.039100066 0.15330294 -0.22448164 0.014056113 -0.04872512
-0.14722292 -0.095653616 -0.16960512 0.17216803 -0.23473449 0.13232665 -0.019274522 0.0322927
0.16108826 0.111521885 -0.077797 0.022649432 -0.022850523 0.15361676 0.15591905 0.1533548
0.14046542 0.16246966 -0.15703061 -0.0053652986 -0.123624444 -0.04117291 0.04789261 -0.2579217
-0.17049322 0.14839873 0.10537371 0.057871774 0.32754916 -0.1445727 -0.021538457 -0.34279978
0.14086276 0.10340729 0.107612245 -0.03154781 0.40474963 0.07298992 -0.31587756 -0.13337065
0.0039801663 -0.03951721 0.20786096 0.15758844 0.0047555272 0.11464207 -0.2846936 0.4663337
-0.30318013 0.06652133 0.20937054 1.259135 -0.046601627 -0.18724363 0.081307866 0.038249776
-0.034902837 0.2998314 0.16724859 0.13284026 0.044280294 -0.3263565 0.10705833 -0.100190856
0.032517377 0.15475146 0.28867367 -0.07881744 -0.08342018 -0.050335694 0.01624809 -0.09912163
-0.26414806 -0.04697679 0.3848795 -0.01915018 0.12569894 -0.0035539467 -0.25262958 0.045144558
0.1598737 0.21559605 -0.15444309 -0.27473095 -0.05338127 0.1556612 -0.12635219 0.16977498
-0.3335683 0.026056943 0.30118597 -0.17142095 0.161786 0.0950584 0.21505839 -0.12233739
0.021276368 -0.008260586 -0.09049287 0.34867403 -0.030255117 -0.3572037 0.18156584 -0.04011787
0.109635815 -0.11575353 0.11536075 -0.15292814 0.006959585 -0.025946228 -0.14504938 -0.0120676
0.18490152 0.15583773 0.15641151 -0.16724674 0.31869227 -0.09928988 0.07366156 -0.18238729
0.10871342 0.17802297 -0.32401755 0.08080506 -0.20369297 0.20451206 0.24939474 -0.0014851252
0.29337513 0.15012778 0.029531825 0.050475094 -0.107171915 0.3432123 0.27186105 -0.017908374
00000000: 16d0 5e3e ab29 473d 6cdb 323f 3542 b6bd
00000010: cb45 153d 3ce7 2abe c007 ccbd 4eef f8bd
00000020: 4742 5bbe f60c 77be 4d6f 6d3d 232b 163c
00000030: 1129 5d3d 6bba 03be 1a21 cb3d dd4b 933e
00000040: 8b28 aabe 5338 6dbe 6223 f0bd 629c 8d3e
00000050: 7a21 a53e a926 1b3e 4209 18be 74b8 19be
00000060: 222c e2bd 2de1 813e b477 2d3e 52ba f8bc
00000070: 7f14 61be 80aa 5cbd 368a 263e e9be 793d
00000080: 4dac 35be a2cf b53d 8b1f a7be 9e58 c5bb
00000090: 9a0d d83d 2230 83bc 237b bcbd 2b05 a53e
000000a0: 9517 d33e b6e5 6e3e bcef ba3e 5bc6 6abd
000000b0: 39af 223d 97ed d63d fb9c ecbd dc86 073e
000000c0: 8862 e93d 663d 7c3e c1d4 00be a5db dfbd
000000d0: b81f acbc 117e 6d3c b9cf 893e 6a0d 20be
000000e0: e379 f23c d8eb 97be 4059 763d 187c c6bc
000000f0: c58a b63c e495 933d 3696 623d ac90 02be
00000100: 74ea 033e 4332 d83d 2067 463e 3263 acbd
00000110: 3147 2a3d caab 053c 0f41 bebd 216b 80bd
00000120: 0a3e 143e 2e98 87be bbaa db3e c9ad c83d
00000130: d4b2 fd3c a3c9 afbe d33f 6f3d 8d84 f13c
00000140: 2f4e c9be 946d 7bbe adfd babc e4e7 743d
00000150: e64b 953d 9fa2 373f e082 65be b7eb 42be
00000160: c1c9 51be b910 223d d533 33bc 6867 b63c
00000170: a7b0 9f3d 99f7 fe3d 0949 d33d 30b7 1dbe
00000180: b43f 943d 0b33 a03c fac8 203e 3e09 8cbd
00000190: 72df 35be ed07 8abe 2bf6 ddbc efb0 c03d
000001a0: 6ea5 00be 5302 67bd e473 8a3c 6291 1b3e
000001b0: dd34 d43d cde9 793d 0ecf 5ebc 185a 643e
000001c0: 4136 a2bd 3cfd 04bd 2b1a e7bd 6427 203d
000001d0: 72fb 1c3e 84de 65be 9c4b 663c fe93 47bd
000001e0: 9bc1 16be 0be6 c3bd f7ac 2dbe d14c 303e
000001f0: 3d5e 70be a380 073e 9ae5 9dbc 5a45 043d
00000200: 52f4 243e 9665 e43d 0954 9fbd 4d8b b93c
00000210: 0531 bbbc b64d 1d3e 3ea9 1f3e 0a09 1d3e
00000220: 2bd6 0f3e 725e 263e a2cc 20be 63cf afbb
00000230: d02e fdbd eda4 28bd 0b2b 443d 500e 84be
00000240: c695 2ebe d6f5 173e 2cce d73d f40a 6d3d
00000250: 86b4 a73e de0a 14be 6b71 b0bc 7483 afbe
00000260: 543e 103e 34c7 d33d cf63 dc3d 4738 01bd
00000270: 583b cf3e bd7b 953d b4ba a1be 5192 08be
00000280: 0e6c 823b ccdc 21bd 81d9 543e dd5e 213e
00000290: 41d4 9b3b 76c9 ea3d 5cc3 91be 4ac3 ee3e
000002a0: 6d3a 9bbe 563c 883d 3b65 563e 562b a13f
000002b0: 59e1 3ebd cbbc 3fbe bd84 a63d ccab 1c3d
000002c0: 47f6 0ebd 8083 993e 3743 2b3e 4707 083e
000002d0: 415f 353d 3318 a7be 6641 db3d dd30 cdbd
000002e0: f130 053d 2b77 1e3e 09cd 933e 0a6b a1bd
000002f0: 33d8 aabd cd2c 4ebd b71a 853c 4800 cbbd
00000300: 6a3e 87be bc6a 40bd ed0e c53e d7e0 9cbc
00000310: 39b7 003e 55e9 68bb aa58 81be 80e9 383d
00000320: eeb5 233e 36c5 5c3e 5426 1ebe 89a9 8cbe
00000330: 52a6 5abd a665 1f3e 7862 01be 7ed9 2d3e
00000340: 77c9 aabe 5f75 d53c 0c35 9a3e f988 2fbe
00000350: 3bab 253e faad c23d 4438 5c3e 078c fabd
00000360: c74b ae3c 6957 07bc 5354 b9bd 6785 b23e
00000370: 94d9 f7bc 67e3 b6be 65ec 393e a352 24bd
00000380: be88 e03d 3010 edbd 4242 ec3d 3299 1cbe
00000390: 3b0d e43b 2f8d d4bc d387 14be 2fb7 45bc
000003a0: d356 3d3e ed93 1f3e 572a 203e bb42 2bbe
000003b0: a22b a33e 7e58 cbbd dfdb 963d bcc3 3abe
000003c0: 24a5 de3d a74b 363e a1e5 a5be 207d a53d
000003d0: e494 50be 9c6b 513e 5661 7f3e 88a8 c2ba
000003e0: 4435 963e 19bb 193e baec f13c f9be 4e3d
000003f0: f37c dbbd 86b9 af3e 5f31 8b3e 95b4 92bc

bias f4 [3]
-0.004912882 0.100092985 0.064558625
00000000: 3efc a0bb 8dfd cc3d 5037 843d
