results/run4_traffic.pth (torch, 30341 bytes, 26 tensors)

weight f4 [2, 1, 5]
00000000: 961a b43e d786 603e 2cb9 d63d d30d babe
00000010: 82dc 303d 96f8 01be 559c adbe 7465 8cbe
00000020: d501 dd3e f05f 10bb
0.35176533 0.21926437 0.104845375 -0.36338672 0.043179043 -0.12692484 -0.33908334 -0.27421153
0.4316546 -0.002202984

weight f4 [1, 2, 5]
00000000: 735a 18be 5cab 213e d287 16be b38b a13e
00000010: 936a 583d 1aa5 25be 9b32 ac3e 6002 6c3e
00000020: 3c85 96be e928 61be
-0.14878254 0.15788025 -0.14700249 0.31551895 0.052836012 -0.16176262 0.3363236 0.23047781
-0.29398525 -0.21988262

weight f4 [2, 1, 5]
00000000: ef7b 7ebe 2ee7 763c 70ba cfbc b9fa 363e
00000010: f4b8 b43e 1c4d 28bc f4da d2be 1c47 e33e
00000020: 9e51 cfbe 9358 923e
-0.24851964 0.015069766 -0.025357455 0.1786908 0.35297358 -0.010272291 -0.41182673 0.4439019
-0.40491956 0.28583202

weight f4 [1, 2, 5]
00000000: 4ef5 843e 30e4 313e 31a3 2a3e 35ba 8dbe
00000010: f980 e63d 1d4d 6bbd f3f0 043d 9d7b e73d
00000020: c5ea 4bbe 3ccb 723e
0.25968403 0.17372203 0.16663815 -0.27681127 0.11255068 -0.057446588 0.03245635 0.11302874
-0.19913776 0.2371034

weight f4 [2, 1, 5]
00000000: a0fb 42be 68e4 cfbc 5b53 db3c 84bd cabe
00000010: 387d 9cbe acce dabe 37d1 aabd 8cd6 943e
00000020: 2ae0 d4be 48d9 9e3e
-0.190413 -0.025377467 0.026773145 -0.39597714 -0.30564284 -0.42735803 -0.08340686 0.29069936
-0.41577274 0.31025147

weight f4 [1, 2, 5]
00000000: 7732 8cbe 16e8 8f3e f098 9f3e 2a44 c33d
00000010: 73bf 51be e4d6 8c3d d14b a33d 6637 68be
00000020: 2540 65be 24c1 d6bb
-0.27382252 0.28106755 0.3117137 0.09534486 -0.20483188 0.06876925 0.07973445 -0.22677383
-0.2238775 -0.006553786

weight f4 [2, 1, 5]
00000000: 643d af3d 2078 1cbe a54f 233c 56a4 b6be
00000010: 8041 90bc 12f5 8ebe 9601 93be ee0d d6be
00000020: b027 923e d488 4ebd
0.08556631 -0.15280199 0.009967719 -0.35672253 -0.017609358 -0.2792135 -0.28712147 -0.41807503
0.28545904 -0.05042346

weight f4 [1, 2, 5]
00000000: 0bdd 483e 3f19 78bd 09c2 803d efcf b43d
00000010: ba07 733e 7454 2cbe 7bf2 dc3d 5639 023e
00000020: 55a7 e3bd 2bde 853d
0.19615571 -0.06057095 0.06287009 0.08828723 0.23733416 -0.16829091 0.10788437 0.12717184
-0.111159004 0.06536516

weight f4 [2, 1, 5]
00000000: 5b37 5ebe 0e50 3d3d cd6c 703e e29a c23e
00000010: 3138 97be 3bad 1cbc f8d7 bdbe 503d 08be
00000020: f302 cbbe cc90 b83e
-0.21700804 0.046218924 0.23479004 0.3800879 -0.29535058 -0.009562786 -0.37078834 -0.13304639
-0.39650688 0.3604797

weight f4 [1, 2, 5]
00000000: ab61 8e3e c91f f1bd c0b5 26be 18f8 2e3e
00000010: 15fd 8abc b1c5 e93c dd74 51be f374 8f3e
00000020: f92a 433d 3ad6 003e
0.2780889 -0.11773641 -0.1628027 0.17086828 -0.016966382 0.02853665 -0.20454736 0.28018913
0.047648404 0.12581721

weight f4 [2, 1, 5]
00000000: 095a 78be 3e9a 923e 588c 983e 7467 d1be
00000010: b7d3 9b3e f063 b5bd e46f 203e 2d8a ed3d
00000020: 8867 1ebe a7ae fb3b
-0.24253096 0.28633302 0.29794574 -0.4089924 0.30434963 -0.08856952 0.15667683 0.115986206
-0.15469182 0.0076807323

weight f4 [1, 2, 5]
00000000: 468a 4e3a 20c5 b8bd 7f9a 163e 7c7c 03be
00000010: f713 733e a92a 60bd 8f72 88bd f525 283e
00000020: 5d6e af3d 7403 4e3c
0.0007878881 -0.090219736 0.14707373 -0.12840456 0.23738085 -0.054728184 -0.06662475 0.1642073
0.08565972 0.0125740655

weight f4 [2, 1, 5]
00000000: 6af4 933e 1d6c 96be 9bef c33e f64e 9fbe
00000010: dd75 4abe a868 c3be bfd6 ad3d 3423 2bbd
00000020: cb90 b3be 398c a2bd
0.2889741 -0.2937936 0.38268742 -0.3111493 -0.19771524 -0.38165784 0.08488225 -0.04178162
-0.35071406 -0.079369016

weight f4 [1, 2, 5]
00000000: 152b 44bd 1e01 8d3d 9003 a8be b99a 603e
00000010: 8c7a a33d 8ac2 83be 2133 953e 1480 11be
00000020: cfa0 5ebd 943c 8f3e
-0.04789265 0.06884979 -0.32815218 0.21934022 0.07982358 -0.2573436 0.2914057 -0.14209014
-0.054352578 0.27975905

weight f4 [2, 1, 5]
00000000: d318 ce3e 5b8d ce3e 25a0 913e 05e3 763d
00000010: 42f9 cd3e b550 813d 2582 9c3e 6e67 fa3d
00000020: 0458 b5bb 8227 b1be
0.40253314 0.4034222 0.28442493 0.060275096 0.4022923 0.06314222 0.30568042 0.12226759
-0.005534174 -0.34600455

weight f4 [1, 2, 5]
00000000: 3385 36be 6437 303e ff10 e3bc 020b 113e
00000010: 2930 8bbe f270 f63d 7795 a4bd 182f 983e
00000020: aaf5 7c3d 4c0a 99bd
-0.17824249 0.1720863 -0.027718065 0.14164355 -0.2718518 0.12033261 -0.08036321 0.2972343
0.06175772 -0.07472667

weight f4 [2, 1, 5]
00000000: 5b2c 33be 1920 a43e 6253 023e 172a 24be
00000010: ef6d 23be 4845 a53e 6c7f c73e ffa7 a53e
00000020: c03b 29bd 56b4 ce3e
-0.17497389 0.3205574 0.1272712 -0.16031681 -0.15959905 0.3227942 0.38964403 0.32354733
-0.041316748 0.4037196

weight f4 [1, 2, 5]
00000000: a358 d03d 9f30 86be 3371 16be 9cd4 343e
00000010: 13d3 8e3e 647d fe3d c987 f23d e84c 24bd
00000020: 2b6f 07be 63af bdbc
0.10173156 -0.2620897 -0.1469162 0.17659229 0.27895412 0.1242626 0.11842305 -0.040112406
-0.13226001 -0.02315492

weight f4 [2, 1, 5]
00000000: 4ea1 cabe b00e a1be 00ae 93be 4933 973d
00000010: 6a05 b13e edf2 24be 41d7 47be c8af bb3e
00000020: 6104 843d 7e3c 18bc
-0.3957619 -0.31456518 -0.2884369 0.07382829 0.34574443 -0.16108294 -0.19515707 0.36657548
0.06446148 -0.009291766

weight f4 [1, 2, 5]
00000000: 0bb5 d83d 0a75 a83c 8e36 843e f503 d7bd
00000010: 89fd 86be 723c 183d 3fb3 03be bd67 e1bd
00000020: a325 9e3e 4f6f 18be
0.10581406 0.020563621 0.25822872 -0.104988016 -0.26365307 0.03716702 -0.12861346 -0.11006115
0.3088809 -0.14886211

weight f4 [2, 1, 5]
00000000: a977 5dbe 547d c83d 01c3 b6be 740c 783e
00000010: 81b3 9abe 1e93 453e c139 303e 736e a33e
00000020: 0df7 293e 4cd1 723e
-0.21627678 0.097895294 -0.3569565 0.242235 -0.30215076 0.19294402 0.17209531 0.31920204
0.16598149 0.23712653

weight f4 [1, 2, 5]
00000000: 937a c53b 6cae 2d3e 1b9e 503e ba44 5b3e
00000010: 5e42 b5bd 3a56 38be eaf4 1bbe dbf9 80be
00000020: 0120 543e 1ab6 dfbc
0.006026575 0.16961068 0.20372812 0.21412936 -0.08850549 -0.18001643 -0.15230146 -0.25190625
0.20715334 -0.027308512

weight f4 [2, 1, 5]
00000000: a136 afbe ab57 4bbd 83d2 383e 60f5 5fbe
00000010: 7562 66be 0cef cdbe 8c1c 62be a962 a7be
00000020: be70 cc3e e221 9d3e
-0.34221366 -0.049644154 0.18049054 -0.21870947 -0.22498496 -0.4022144 -0.22081202 -0.3269246
0.39929765 0.30689913

weight f4 [1, 2, 5]
00000000: 6d65 40be 4277 86be 1735 803c 4e86 9f3e
00000010: 0ea5 1a3e 30e5 76be 874b d03d b08c 49bd
00000020: c818 fb3d be5f 92be
-0.18788691 -0.26262861 0.015650315 0.31157154 0.15102026 -0.24110866 0.10170656 -0.049206436
0.12260586 -0.2858867

weight f4 [3, 168]
00000000: ad43 4e3b 6ac7 893b ba45 c53b 9ecc bb3b
00000010: b8ef 8e3a cacc 193c 0fcc 0d3b 38f9 2b3a
00000020: 8045 213a c89d 433b 3b6f ceba 7122 bd3b
00000030: b50d 5f3b ec8b 1b3c feec 6a3b 5d10 f03b
00000040: 6c71 513c 07e1 a23b 7fbc 403c f0cf 9a3b
00000050: d7aa 143c 68ae 463c 129f 153c c7ce 8b3a
00000060: 3113 2d3b e27b cc3b ee1f b33a 7e18 8a3c
00000070: 2122 8a3b 19d2 44bb 7dd3 3638 4c09 89bb
00000080: a1f2 a7ba f659 a3ba ef2f 663a f257 d53a
00000090: b50f bd3b d14a cd3b fd1d 67ba c238 4839
000000a0: ff72 183c 5672 1dbb 30d6 673c 077e 1bbb
000000b0: 754d aeb9 d86a d33b 9fbb d9bb 0d6f d63b
000000c0: 79c5 b7ba 1e13 973b fb45 93bb 9291 973c
000000d0: 9f48 ec3a 3e55 5c3b b997 98bb 96a5 e73b
000000e0: 3ed4 203a 141d 05bb 188d 8b3b 48ea cbba
000000f0: 59b2 1dba 8f3b 433c a45d 3bbc bb7d 2539
00000100: 96b4 473b 24b4 373c 2642 a3b9 67e2 f13b
00000110: 49a7 ea3a 6e3d b4bb a943 463a 53fc fdbb
00000120: 7c99 883c 703e 69bb e4d5 b3bb 199d fb3b
00000130: 437c 07bc fcb7 d53b 2bb5 26ba 5b05 0b3b
00000140: 0bff 05bb 58d0 333b 3345 173c 4321 c1bb
00000150: 080e b539 1658 38bc cf04 94bb 1d01 1dbb
00000160: 1274 14b9 45d1 c0ba 9315 aebb 478c 67ba
00000170: 1223 1cba e15a 0bbc 1da1 8c3b f346 a639
00000180: 682c b33b 2a65 b03b 9f2a fc3b ef10 2eba
00000190: 2adf 2bba 88de 2f3c bcd7 45bc d3f5 b03b
000001a0: 241f d73a b897 273b 1149 213a d225 a33b
000001b0: 1a98 cd3b e017 5bbb 425e cab9 2687 883a
000001c0: cb0c 193c cbb5 ec3b 886b 183b 2c02 51bb
000001d0: 147b e13b 4b8f 11ba c8b2 de3a df79 f5bb
000001e0: 5d93 053c 655a 0c3c dec8 483b 8b96 2d3a
000001f0: 380d 19bb 3aa7 72bb 95ea 18bc 96e6 ba3b
00000200: 9cd1 853b f274 713c ecef d73b d8a0 7eb9
00000210: 3a16 7fbb ee5f 0bbc e753 c6bb cddd 93bb
00000220: 4575 f5ba cd9c 453b e150 343c 0249 7ebb
00000230: 7a5f 833b 934d 863b 6a1f 3c3c b30a d1ba
00000240: f547 2e3c d18d e13b 750e 043a e94f 673c
00000250: 7f1f ca3b 5822 38bb d43c 833b 9d5c 2fbb
00000260: 72e1 4cbb 441c 4d3a 2f3f 993c b615 333c
00000270: 4347 4d3c 2e04 033b c16f 423c 7874 9f3b
00000280: 6299 0a3c f0a6 413b 415a 2d3c 5916 a03b
00000290: 59b8 963b d12f 5c3c 4acb 973c e680 4b3c
000002a0: 85e2 e6ba 4877 273b 1c51 9c3b 0468 dc3b
000002b0: b853 d43b 7ab5 ec3a f484 213c af63 243b
000002c0: e5cf b939 dde9 0b3a 146a 083b 4adf baba
000002d0: 5ecc cd3b ac4d a23b 61d1 243c a3b4 163b
000002e0: 72dd 003c a156 473c ded6 803b dead 263c
000002f0: 21f8 bc3b 276b 203c 770d 533c d5fc 163c
00000300: 0887 813b 2070 883b 10e1 bd3b 29d9 673b
00000310: 669c 703c db73 bd3b bfbc 82bb ac90 da39
00000320: ec16 cdbb 600d 8fba 35e6 d3ba ab1a 003b
00000330: fd52 c73a 7595 ba3b 82be ea3b a041 0dba
00000340: f65c 9036 420f 103c bf0b 65bb c767 513c
00000350: ac79 5dbb dfe5 98b9 f4a2 f73b 3e93 a3bb
00000360: ea6a 053c c860 ffba 036e bd3b ee19 85bb
00000370: 7dec 923c 179a 2a3b e4d2 993b 99fa 92bb
00000380: a35a e53b 0008 643a 2864 81bb 3118 3b3b
00000390: f6e1 98ba 2d94 8c39 54b0 4e3c 3282 26bc
000003a0: 810d a13b 8878 7d3b e7d8 513c 9cda 14bb
000003b0: 09e7 dd3b 66bc ba3a 31d6 0cbc 0dad 45b7
000003c0: f5ed f6bb e45b 963c 2491 85bb 053a acbb
000003d0: edcb fd3b b4a9 dbbb dd1d ed3b 1412 e73a
000003e0: 4c66 283b a275 51bb 9333 6a3b d34a 0a3c
000003f0: e693 c1bb 7062 2238 36ce 4dbc d8f2 71bb
0.0031473443 0.00420468 0.006020275 0.0057311794 0.0010905182 0.009387204 0.002163652 0.0006560269
0.0006152019 0.0029848684 -0.0015749702 0.005771928 0.003403527 0.009493809 0.0035846825 0.0073261694
0.01278339 0.004970673 0.011763691 0.004724495 0.0090739345 0.012126543 0.009132164 0.0010666483
0.0026409144 0.006240354 0.0013666132 0.016857382 0.0042154943 -0.0030032455 4.3589145e-05 -0.0041820165
-0.0012813398 -0.0012462724 0.00087809464 0.001627682 0.0057696947 0.0062650223 -0.0008816419 0.0001909463
0.009304761 -0.0024024448 0.014150187 -0.0023726241 -0.00033245576 0.0064519458 -0.0066446806 0.006544
-0.0014020643 0.0046104332 -0.0044944263 0.01850203 0.0018027014 0.0033620144 -0.0046567586 0.0070693
0.0006135142 -0.0020311521 0.004258763 -0.0015557492 -0.00060156506 0.011916055 -0.0114359 0.00015782464
0.0030472628 0.011212382 -0.00031139067 0.0073817256 0.0017902638 -0.005500487 0.0007563183 -0.0077510267
0.01667475 -0.0035590194 -0.0054881442 0.0076786396 -0.008269372 0.006522177 -0.00063593936 0.002121291
-0.0020446207 0.0027437415 0.009232807 -0.0058938577 0.00034533464 -0.01125147 -0.004517175 -0.0023956962
-0.0001415762 -0.0014710805 -0.0053126304 -0.00088328536 -0.00059561536 -0.008505554 0.004291667 0.0003171485
0.00546794 0.0053831534 0.0076955105 -0.00066400965 -0.00065563864 0.010734208 -0.012075361 0.0054003983
0.0016412479 0.002557261 0.00061525503 0.0049788738 0.0062742354 -0.0033430979 -0.0003859867 0.0010416254
0.009341429 0.00722382 0.0023257453 -0.0031892164 0.006881127 -0.00055526634 0.0016990537 -0.007491335
0.00815281 0.008566474 0.0030637304 0.0006621859 -0.0023353826 -0.0037025944 -0.009333272 0.0057037575
0.0040838253 0.014737355 0.00658988 -0.00024283247 -0.003892316 -0.008506758 -0.0060524824 -0.0045125247
-0.0018726966 0.0030153275 0.011005611 -0.003880084 0.0040091844 0.004098603 0.011482099 -0.0015948623
0.010637273 0.006883361 0.00050375547 0.014118173 0.0061683054 -0.0028096642 0.004005054 -0.0026758083
-0.0031262306 0.00078243413 0.018706886 0.010930469 0.012529197 0.0019991505 0.0118674645 0.004866179
0.008459421 0.0029548965 0.0105806 0.0048854765 0.0045996127 0.013439135 0.018529553 0.0124208685
-0.0017615116 0.0025553275 0.004770411 0.006726267 0.0064797066 0.0018059455 0.009858359 0.002508383
0.00035440843 0.00053372775 0.002081518 -0.0014257219 0.006280466 0.004953107 0.010059685 0.0022995851
0.007865297 0.01216665 0.003931864 0.010173289 0.005766884 0.009791172 0.012881628 0.009215553
0.0039528646 0.004163757 0.005794652 0.003537724 0.014685726 0.0057816333 -0.0039897854 0.0004168799
-0.006258836 -0.001091402 -0.001616663 0.0019547145 0.0015207228 0.005694086 0.0071638236 -0.0005388502
4.3023565e-06 0.0087927 -0.0034949628 0.01278109 -0.0033794446 -0.00029162967 0.0075572673 -0.004991918
0.008143166 -0.0019483799 0.0057809367 -0.004061929 0.017935032 0.0026031786 0.0046943296 -0.00448544
0.00699933 0.0008698702 -0.003948707 0.0028548355 -0.0011664021 0.0002681328 0.012615282 -0.010162877
0.00491494 0.0038676579 0.012808061 -0.002271331 0.0067719263 0.0014246821 -0.008595989 -1.1782407e-05
-0.007535691 0.018354364 -0.00407614 -0.00525594 0.007745257 -0.00670358 0.007236226 0.0017629289
0.002569574 -0.0031960984 0.0035736307 0.008440691 -0.0059075234 3.8715487e-05 -0.012561372 -0.0036918428

bias f4 [3]
00000000: c256 b63a b04b a03a e0b8 933a
0.0013911354 0.0012229588 0.0011270307
